src/models/CNN_classifier.pt (torch, 484399 bytes, 15 tensors)

weight f4 [65, 300, 6]
4.3415437 3.2413237 1.4534936 -0.20149276 -3.0567813 3.0284576 2.9456472 0.85430264
1.2709106 -0.9052215 -4.8528776 -5.112017 1.2485662 -0.87010854 0.88927126 -0.2513011
0.61490947 3.926754 -2.0733016 1.3257924 -1.8605793 -2.111059 -2.872718 -1.7881042
-1.1423061 0.33787125 -0.34537065 -0.97085345 -0.039064873 5.401684 -1.0747449 -4.2022023
2.1239204 0.9474709 -1.4673326 0.20673615 -0.5025138 1.9114896 -1.1443604 -3.7213752
-3.3541598 -2.2135286 -1.8033342 -2.320492 0.74580026 1.2154447 -0.86434424 0.2501318
1.1626557 0.80432844 -1.2427373 0.34346122 -0.8516055 -0.77505016 4.8114715 -0.27351427
2.2702837 5.0793166 1.7916645 0.89642537 0.7261391 -0.13051419 -0.4174203 0.320899
-2.3738058 0.08338754 0.65145314 0.42917085 -0.188616 -1.8233614 1.800736 0.5127939
-2.7840595 4.233207 1.1254703 -1.2079799 0.57622236 0.2925917 -0.2835934 -1.1877258
-1.2986265 1.2611055 2.0316029 -1.9992818 -4.1544566 -0.8298921 -0.974167 2.0629418
-0.6456402 1.643553 -2.365697 0.5559835 -1.647608 -0.20329008 0.87643516 1.1769389
0.13693671 -1.7692422 -0.44273835 1.6809534 0.65618366 -0.26118833 0.5458606 -0.8600999
2.886824 1.0870205 3.5211444 3.0436783 -0.83922964 -0.07094171 -3.3870761 -2.0892534
-1.5247326 1.1245564 -1.1346874 0.4287219 -2.6739125 -4.8902373 -2.780757 -1.345761
1.0373234 1.2448585 0.60592216 0.17524914 3.3238888 1.8977354 -0.018968962 -0.15343767
2.3394322 2.578912 5.4504657 -0.5097322 0.16905966 -1.0115917 -3.6952026 -2.5561752
-0.2967522 -1.9395775 -0.25865054 -0.9795265 -1.4578347 -0.37812018 -2.1275208 0.55311507
2.1686423 -0.25052887 0.9715651 -1.9213376 -1.0459142 6.3950815 0.22007474 -0.96020716
-0.40726018 -0.14045054 0.73241997 -3.2132351 -0.74071884 5.1913457 -1.1980579 -0.14529215
0.78441423 -1.3063639 -1.2529157 -0.6674648 -0.31713837 -0.2944551 -1.046658 -3.3437636
-0.48765346 1.4598687 0.18273424 -0.24145637 -3.3885171 -2.4423888 1.7963003 -1.1782999
-1.4980314 -0.3616158 2.1451702 0.7800933 1.0396562 -3.5755236 1.6397982 1.4627842
3.3907943 0.6459548 0.03876745 0.07704737 5.1510572 2.5911603 2.2995408 2.1908429
0.31317428 0.74657774 0.7469337 -1.1611693 -2.8758245 1.0058522 2.2889946 4.654523
2.5044713 -0.3014774 -2.786136 -1.6843858 -0.025802694 -1.0156593 -0.9897453 0.19459036
-0.5767522 1.6813204 0.51298594 -2.687239 -0.88359135 0.33237594 -1.4235189 1.8097833
-1.5847924 -0.72361934 -0.5905892 -0.3154262 -1.5653772 3.8196943 0.13234337 -2.184181
-0.21418987 -0.3330704 -0.77574766 0.9884288 -0.68886864 0.32833183 1.2831138 -0.17560378
-3.6178424 -0.52590245 -0.2839251 0.25569457 3.936025 3.7766757 2.5040107 -1.1810714
-0.087845646 -0.17999038 0.11354299 -0.9598529 1.4132596 -0.10469247 0.8804523 -1.2970707
-1.0050865 -0.016035205 -1.6597724 0.8297419 1.5435143 -0.091926076 0.8328849 0.6368295
00000000: eded 8a40 d971 4f40 140c ba3f 1e54 4ebe
00000010: 4ea2 43c0 40d2 4140 7c85 3c40 94b3 5a3f
00000020: 33ad a23f 99bc 67bf c64a 9bc0 a595 a3c0
00000030: 04d1 9f3f 6fbf 5ebf 48a7 633f 8aaa 80be
00000040: b56a 1d3f f04f 7b40 f9b0 04c0 91b3 a93f
00000050: 7627 eebf 971b 07c0 9dda 37c0 99e0 e4bf
00000060: 1637 92bf 76fd ac3e 6cd4 b0be da89 78bf
00000070: 7d02 20bd 98da ac40 3e91 89bf 7178 86c0
00000080: 50ee 0740 748d 723f 8ed1 bbbf a4b2 533e
00000090: bfa4 00bf b1ab f43f 677a 92bf 032b 6ec0
000000a0: 8eaa 56c0 74aa 0dc0 a8d3 e6bf f182 14c0
000000b0: c4ec 3e3f b193 9b3f aa45 5dbf 4611 803e
000000c0: e7d1 943f 78e8 4d3f 0412 9fbf 26da af3e
000000d0: d102 5abf b069 46bf 93f7 9940 100a 8cbe
000000e0: 544c 1140 c389 a240 4355 e53f 227c 653f
000000f0: 41e4 393f 83a5 05be 1db8 d5be e04c a43e
00000100: 6fec 17c0 16c7 aa3d a2c5 263f 48bc db3e
00000110: 8d24 41be e863 e9bf 847e e63f 7646 033f
00000120: 082e 32c0 6f76 8740 690f 903f 169f 9abf
00000130: 4f83 133f 94ce 953e 2733 91be 6607 98bf
00000140: 6539 a6bf e86b a13f c805 0240 77e8 ffbf
00000150: 4ff1 84c0 cf73 54bf 0263 79bf 3d07 0440
00000160: ad48 25bf f25f d23f 9467 17c0 ef54 0e3f
00000170: d2e4 d2bf 462b 50be 0e5e 603f efa5 963f
00000180: 2339 0c3e 8776 e2bf 9aae e2be 7b29 d73f
00000190: a7fb 273f 7aba 85be 85bd 0b3f 822f 5cbf
000001a0: b9c1 3840 7d23 8b3f 6e5a 6140 a0cb 4240
000001b0: c1d7 56bf e349 91bd dbc5 58c0 54b6 05c0
000001c0: 702a c3bf 77f1 8f3f 703d 91bf 7081 db3e
000001d0: 6221 2bc0 d37c 9cc0 ecf7 31c0 e541 acbf
000001e0: 03c7 843f 8657 9f3f b71d 1b3f 8374 333e
000001f0: 98ba 5440 fee8 f23f cc64 9bbc c41e 1dbe
00000200: 42b9 1540 e50c 2540 376a ae40 cf7d 02bf
00000210: fa1d 2d3e d67b 81bf 337e 6cc0 6098 23c0
00000220: e8ef 97be 1344 f8bf d86d 84be 40c2 7abf
00000230: 549a babf f898 c1be 4d29 08c0 f398 0d3f
00000240: 09cb 0a40 5245 80be 7eb8 783f 64ee f5bf
00000250: 84e0 85bf 82a4 cc40 465b 613e 23d0 75bf
00000260: 6884 d0be 44d2 0fbe e07f 3b3f a5a5 4dc0
00000270: c09f 3dbf 811f a640 f659 99bf 77c7 14be
00000280: 5fcf 483f ef36 a7bf 8b5f a0bf f9de 2abf
00000290: f65f a2be d2c2 96be e4f8 85bf 3900 56c0
000002a0: b7ad f9be fadc ba3f af1e 3b3e 5740 77be
000002b0: 77dd 58c0 1950 1cc0 2bed e53f 88d2 96bf
000002c0: 7ebf bfbf b525 b9be 784a 0940 32b4 473f
000002d0: 7413 853f 61d5 64c0 e8e4 d13f 833c bb3f
000002e0: c602 5940 4b5d 253f 9eca 1e3d 03cb 9d3d
000002f0: 76d5 a440 92d5 2540 ad2b 1340 c536 0c40
00000300: 6158 a03e b81f 3f3f 0c37 3f3f 32a1 94bf
00000310: 820d 38c0 c4bf 803f e37e 1240 daf1 9440
00000320: 4249 2040 3f5b 9abe 0d50 32c0 f499 d7bf
00000330: 2c60 d3bc 2001 82bf f35f 7dbf b242 473e
00000340: 08a6 13bf 8235 d73f 0c53 033f b9fb 2bc0
00000350: 0b33 62bf 2e2d aa3e de35 b6bf fba6 e73f
00000360: 7ada cabf 1e3f 39bf db30 17bf 8b7f a1be
00000370: 485e c8bf df75 7440 0585 073e 9fc9 0bc0
00000380: 9754 5bbe 3488 aabe 6697 46bf ab09 7d3f
00000390: b259 30bf 1c1b a83e 133d a43f 7ad1 33be
000003a0: bb8a 67c0 8ba1 06bf a15e 91be 66ea 823e
000003b0: d5e7 7b40 0eb5 7140 b641 2040 592d 97bf
000003c0: 6be8 b3bd 664f 38be 3a89 e83d ebb8 75bf
000003d0: b1e5 b43f 0169 d6bd 5265 613f 6a06 a6bf
000003e0: ada6 80bf 435c 83bc 6c73 d4bf f769 543f
000003f0: e091 c53f bd43 bcbd f237 553f 4207 233f

bias f4 [65]
-0.8179209 -0.6582523 0.16268638 0.35229293 1.2903063 -0.2012923 -4.104797 0.12259359
0.4223963 0.17203754 -0.16354318 -0.57148427 -0.17768137 0.68707764 -1.1361647 -0.71856207
-4.4457946 0.48424032 0.7360956 -0.5244922 -0.38181368 0.69422567 0.44430453 0.5798593
0.5094003 0.22187296 -0.38362202 0.50375986 0.48859695 5.1366916 0.4325825 3.1757715
-0.6068315 -0.5402526 6.9629755 0.782107 3.018754 -1.0511918 0.57462215 0.48554498
-0.011315764 5.2004013 0.56474704 8.00455 -0.10866582 -0.5508968 -0.48635492 -0.6154318
-4.3993583 0.7527553 10.185341 2.973703 -0.7791994 7.7334905 0.5064055 -0.26130816
0.0562505 0.8390488 2.860549 -6.1639194 0.87012213 -0.6714789 0.5115191 -1.8122386
-0.44034156
00000000: 4463 51bf 3983 28bf 4297 263e bd5f b43e
00000010: c228 a53f 921f 4ebe 7f5a 83c0 5912 fb3d
00000020: 5444 d83e 9c2a 303e dd77 27be cb4c 12bf
00000030: 1bf2 35be 52e4 2f3f d86d 91bf aff3 37bf
00000040: f343 8ec0 59ee f73e c370 3c3f 1f45 06bf
00000050: 157d c3be c6b8 313f e27b e33e a971 143f
00000060: 0f68 023f aa32 633e 1b6a c4be 68f6 003f
00000070: 6129 fa3e c75f a440 747b dd3e d73f 4b40
00000080: 4f59 1bbf ff4d 0abf b2d0 de40 2a38 483f
00000090: 4433 4140 748d 86bf 701a 133f 5a99 f83e
000000a0: c165 39bc b069 a640 4393 103f a312 0041
000000b0: 2f8c debd 9307 0dbf 8303 f9be f08c 1dbf
000000c0: 8bc7 8cc0 92b4 403f 28f7 2241 2651 3e40
000000d0: 9d79 47bf c178 f740 caa3 013f 2fca 85be
000000e0: ed66 663d e7cb 563f 3c13 3740 d43e c5c0
000000f0: 53c0 5e3f 0be6 2bbf eaf2 023f 6ff7 e7bf
00000100: 7374 e1be

weight f4 [65]
-1.1599233 0.1408489 0.082153246 0.11945756 3.253344 0.0004244227 6.0054193 -0.18883263
0.17201373 1.0105871 0.21296932 3.2598968 0.109412454 -0.12628539 0.1572158 -0.08752006
3.2364912 0.0030374594 -0.00987736 0.4698065 0.18694852 3.4158552 0.24698076 -0.07466909
0.20790207 0.12891155 0.15822734 -0.08483053 0.36800125 3.5485387 0.002492056 4.247218
-0.09611722 0.21085142 3.3276184 0.62364215 3.1005986 -2.6234097 0.17823629 0.13462064
0.3427885 4.0300913 0.04248101 3.8758988 0.2721168 -0.0038088472 -0.0837927 -0.025285466
3.2840428 0.32983628 3.5593743 5.6231976 0.118518755 3.2026153 3.883802 2.5212402
0.39959013 0.9105866 1.8546073 3.4054174 -0.048861593 0.24094546 -0.6284749 2.5578732
-0.044213463
00000000: 5e78 94bf b23a 103e f63f a83d 2aa6 f43d
00000010: ca36 5040 0d85 de39 652c c040 575d 41be
00000020: 5e24 303e eb5a 813f a114 5a3e 26a2 5040
00000030: a313 e03d f550 01be 2efd 203e b83d b3bd
00000040: ac22 4f40 1d10 473b a7d4 21bc 7a8a f03e
00000050: 6f6f 3f3e 5f9d 5a40 86e8 7c3e 1cec 98bd
00000060: 48e4 543e 6401 043e 5906 223e a1bb adbd
00000070: a96a bc3e 421b 6340 c351 233b 36e9 8740
00000080: 1bd9 c4bd 6fe9 573e b3f7 5440 03a7 1f3f
00000090: 3570 4640 f2e5 27c0 9383 363e fed9 093e
000000a0: f981 af3e 82f6 8040 9100 2e3d ba0e 7840
000000b0: e552 8b3e da9d 79bb 829b abbd 7723 cfbc
000000c0: c22d 5240 4de0 a83e cacc 6340 3cf1 b340
000000d0: f6b9 f23d a6f7 4c40 3690 7840 005c 2140
000000e0: 1497 cc3e 341c 693f c663 ed3f 5cf2 5940
000000f0: 1823 48bd 68ba 763e bbe3 20bf 32b4 2340
00000100: 2d19 35bd

bias f4 [65]
-1.8112338 -0.5696265 -0.5331907 -0.5473293 -3.6951954 -0.54533577 -0.8699403 -0.84313965
-0.85027504 -2.736191 -1.227692 -5.39338 -1.0460888 -1.7022852 -1.0555488 -0.85021305
-4.652333 -0.3173571 -0.63505274 -2.2840605 -0.47078604 -4.776887 -0.5392132 -0.7774981
-0.4672473 -0.9512194 -0.8549907 -1.9750544 -0.6754765 -3.7145717 -0.6801392 -5.283757
-1.3352503 -0.7944472 -4.6219754 -1.3170028 -5.388683 2.3586273 -0.4814031 -1.4898833
-0.8710114 -4.937822 -0.6106059 -5.052991 -0.5019447 -0.6555362 -0.847605 -0.7243664
-5.6350193 -0.32889974 -3.6035757 -1.2654971 -0.20424917 -4.5255857 -5.6121283 3.2311177
-1.3955895 -2.1278567 -3.0082731 -5.2575793 -0.72134495 -1.199644 -3.7747657 -3.6329956
-1.000003
00000000: 82d6 e7bf 0bd3 11bf 307f 08bf c61d 0cbf
00000010: 157e 6cc0 209b 0bbf 68b4 5ebf 00d8 57bf
00000020: a0ab 59bf c11d 2fc0 0325 9dbf 9296 acc0
00000030: 3de6 85bf 7be4 d9bf 391c 87bf 90a7 59bf
00000040: e9df 94c0 a17c a2be d192 22bf 0c2e 12c0
00000050: de0a f1be 42dc 98c0 e009 0abf 1e0a 47bf
00000060: 0a3b efbe 1d83 73bf ace0 5abf 95ce fcbf
00000070: 07ec 2cbf 8bbb 6dc0 9a1d 2ebf 8a14 a9c0
00000080: 7be9 aabf e460 4bbf 39e7 93c0 8c93 a8bf
00000090: 1770 acc0 c0f3 1640 787a f6be 7fb4 bebf
000000a0: 9afa 5ebf a302 9ec0 ab50 1cbf 1ab2 a1c0
000000b0: 737f 00bf 38d1 27bf a4fc 58bf 1470 39bf
000000c0: 1452 b4c0 8c65 a8be fca0 66c0 cffb a1bf
000000d0: b226 51be 99d1 90c0 8e96 b3c0 a2ca 4e40
000000e0: ada2 b2bf ce2e 08c0 8c87 40c0 173e a8c0
000000f0: 10aa 38bf ef8d 99bf c395 71c0 0083 68c0
00000100: 1900 80bf

running_mean f4 [65]
33.66923 10.563539 6.9323926 8.137432 5.8733 7.2748055 -32.97437 -18.029371
7.4623346 -11.413905 -11.2780485 5.210011 -4.342585 3.8130026 -16.965454 4.0329127
5.5757976 -15.514663 4.057382 -5.823666 -12.106792 8.961365 -8.338156 -1.2652535
-7.8557787 1.8076928 -5.240504 4.0012054 -6.9861403 16.433578 -8.566832 13.61159
-10.343011 -7.2460337 17.570583 -7.1670246 9.563452 17.311415 -5.0557337 5.241104
-10.118379 17.467468 -6.410423 21.636568 -9.825666 4.1874795 5.07861 9.78789
7.4976625 -9.922231 21.135742 -24.078888 -8.709082 8.441482 9.881835 -17.470428
-6.389276 -18.29468 15.921386 1.2249025 1.7310131 -5.6922746 22.86004 11.280377
-0.5929364
00000000: 4bad 0642 4104 2941 29d6 dd40 ec32 0241
00000010: 13f2 bb40 35cb e840 c1e5 03c2 273c 90c1
00000020: 72cb ee40 5b9f 36c1 e372 34c1 69b8 a640
00000030: 75f6 8ac0 3c08 7440 40b9 87c1 9f0d 8140
00000040: ef6c b240 0f3c 78c1 13d6 8140 795b bac0
00000050: 6cb5 41c1 c061 0f41 1669 05c1 d4f3 a1bf
00000060: 8a62 fbc0 7a62 e73f 35b2 a7c0 e009 8040
00000070: 768e dfc0 f877 8341 be11 09c1 13c9 5941
00000080: f97c 25c1 82df e7c0 8e90 8c41 4458 e5c0
00000090: e603 1941 c77d 8a41 92c8 a1c0 20b7 a740
000000a0: e1e4 21c1 60bd 8b41 2f22 cdc0 b117 ad41
000000b0: ee35 1dc1 d5ff 8540 f983 a240 339b 1c41
000000c0: daec ef40 75c1 1ec1 0016 a941 90a1 c0c1
000000d0: 6658 0bc1 4f10 0741 ff1b 1e41 70c3 8bc1
000000e0: f374 ccc0 815b 92c1 ffbd 7e41 9bc9 9c3f
000000f0: d691 dd3f 1d27 b6c0 5de1 b641 6d7c 3441
00000100: aeca 17bf

running_var f4 [65]
2202.563 210.99829 88.853714 108.60433 758.0364 102.047195 1960.0837 554.1198
97.666885 270.15097 243.88165 720.32495 44.983753 75.06417 441.19824 63.240894
842.66455 471.95535 36.5804 76.153404 229.7773 865.34143 145.3495 22.847136
127.0076 26.861156 54.614655 48.194637 102.9812 926.7811 139.01155 931.74097
169.90182 87.0554 831.95966 116.94631 803.00824 1273.7065 68.25442 57.844242
194.02837 975.3897 100.069855 1014.19037 165.04149 60.387016 71.84244 186.38087
1000.8142 195.94582 826.84814 1814.7539 117.72868 763.8722 942.62933 1472.7015
81.98047 614.9953 893.8296 816.77325 23.51136 57.811657 1154.9576 897.91016
28.53293
00000000: 02a9 0945 90ff 5243 1ab5 b142 6b35 d942
00000010: 5482 3d44 2a18 cc42 ae02 f544 ab87 0a44
00000020: 7255 c342 5313 8743 b4e1 7343 cc14 3444
00000030: 5def 3342 db20 9642 6099 dc43 adf6 7c42
00000040: 88aa 5244 49fa eb43 5452 1242 8b4e 9842
00000050: fdc6 6543 da55 5844 7959 1143 efc6 b641
00000060: e403 fe42 a6e3 d641 6875 5a42 4fc7 4042
00000070: 60f6 cd42 feb1 6744 f502 0b43 6cef 6844
00000080: dee6 2943 5d1c ae42 6bfd 4f44 83e4 e942
00000090: 87c0 4844 9c36 9f44 4382 8842 8160 6742
000000a0: 4307 4243 f1d8 7344 c423 c842 2f8c 7d44
000000b0: 9f0a 2543 4e8c 7142 54af 8f42 8161 3a43
000000c0: 1c34 7a44 21f2 4343 48b6 4e44 20d8 e244
000000d0: 1675 eb42 d2f7 3e44 47a8 6b44 7316 b844
000000e0: 00f6 a342 b3bf 1944 1875 5f44 7d31 4c44
000000f0: 4417 bc41 233f 6742 a55e 9044 407a 6044
00000100: 7143 e441

weight f4 [5, 65, 4]
1.0482392 -0.45933518 -0.9576023 2.6719017 0.48759124 0.13126205 0.7452456 0.20381282
0.47102475 0.6704805 0.5374034 0.64403313 -0.04351974 0.6958934 0.7615416 0.13632672
0.14143467 0.38024056 1.4034451 1.86808 0.9287843 0.3972149 0.7297246 0.21605353
1.1608858 -0.10936961 4.0378485 2.8498373 0.62971735 0.7757269 0.3763223 0.15996428
0.8354918 0.071697384 0.93018687 0.31786415 0.94278556 0.39332008 -0.04694748 0.3585697
-0.6616948 -0.8630977 -0.18810888 -0.7026845 2.0889022 -2.060075 2.9180655 2.9479814
-0.123892225 0.9295572 0.7583997 0.5061271 0.61188143 0.8361876 0.5661822 0.09071295
-0.70609707 -1.2578787 -0.30016324 0.75553423 -0.12661605 0.41503498 0.14571394 0.27008632
1.5364726 5.282266 -2.8716 0.25417677 0.15271921 0.023812281 -0.03513016 0.8855927
-0.25806475 1.0362923 -0.2005656 0.054689433 -0.9072386 -0.38848698 0.46493113 -0.12283879
-0.30036595 -0.88028026 -0.15484123 -0.7654708 -2.5224962 0.36925516 0.67228985 5.019749
0.7796053 0.35299316 0.34820014 0.27667227 0.6366786 0.93535197 0.67336285 0.21995237
-0.9032978 -0.9081192 0.036607005 -0.7605811 -0.5322302 0.3630462 -0.0969388 0.30375916
0.43739897 -0.8993788 -0.42148694 -0.9285488 0.6866308 0.6530499 0.78591704 0.1629171
0.14321436 0.15733764 -0.82739395 -0.7207518 -1.7854068 0.8904557 1.8421756 -3.8563175
-0.66801697 -0.48564515 -0.43085662 0.13378781 9.842487 2.7997441 -1.657295 0.42660308
0.42033505 -0.80853856 -0.78307045 -0.83224857 0.71533924 0.9564843 -0.7460567 0.8217725
1.0554967 -2.637505 1.313845 1.8506327 -0.966575 -0.94058794 -0.84401023 -0.79948103
3.4781716 1.304104 -2.2676802 4.5810547 2.8988607 -5.659794 -0.54752964 0.38764665
-0.29993117 -0.8448981 -0.64324486 -0.8416889 0.64171165 -0.31527457 -0.023935558 -0.5901284
-0.07595125 -0.011053533 0.22172834 0.06687418 -2.2537854 13.982813 -2.010889 -1.4927803
0.54176265 0.84910715 -0.6030108 0.7203175 3.2815607 0.0102785975 -0.21505064 4.92864
0.17745717 0.90358585 0.10668231 0.29514188 -0.8241076 0.22874986 -0.0738629 0.7119138
0.8193799 0.2629488 0.813004 0.88495237 0.78799874 0.55895716 0.028785815 0.43842733
-1.4542763 0.48773664 3.0065215 0.046657655 -0.012939231 -0.21291696 0.8597652 0.5396849
4.7172327 1.742708 -1.2105571 0.3401462 4.0831842 1.1735933 -0.272276 2.4628916
-0.94702595 -0.783939 -0.62495375 -0.43900752 7.1707854 0.6096428 -0.029367266 4.764287
5.2599177 4.888157 0.5767172 -0.14925739 -2.0681417 -0.7392184 3.0683959 -4.531961
0.87090415 -0.02952255 0.626095 0.78693646 0.7055318 0.90122944 0.28781798 0.35748243
3.0549824 -0.47954494 1.9505467 -4.3572245 4.5537276 4.7535896 -1.6258892 -2.028983
0.54277945 -0.7163992 -0.0548342 0.7317436 0.56427205 -0.79330146 0.18917172 -0.711001
-0.92907655 -0.520866 0.37531516 -1.496862 2.4865131 -0.85842884 2.1914382 -2.4483705
00000000: b42c 863f fb2d ebbe 6d25 75bf 7000 2b40
00000010: 8fa5 f93e 8f69 063e 6ac8 3e3f 4fb4 503e
00000020: 282a f13e 9ca4 2b3f 4593 093f 5bdf 243f
00000030: c141 32bd 1226 323f 64f4 423f 3b99 0b3e
00000040: 40d4 103e e4ae c23e 17a4 b33f 3f1d ef3f
00000050: cfc4 6d3f c05f cb3e 3bcf 3a3f 233d 5d3e
00000060: e897 943f 2dfd dfbd 0e36 8140 bc63 3640
00000070: 2835 213f 0a96 463f 51ad c03e adcd 233e
00000080: cae2 553f 14d6 923d ba20 6e3f 17bf a23e
00000090: 655a 713f 4061 c93e 004c 40bd 7396 b73e
000000a0: d564 29bf f9f3 5cbf 9d9f 40be 22e3 33bf
000000b0: 93b0 0540 45d8 03c0 96c1 3a40 baab 3c40
000000c0: 35bb fdbd 76f7 6d3f 7c26 423f 8c91 013f
000000d0: 43a4 1c3f 6410 563f 51f1 103f b6c7 b93d
000000e0: c7c2 34bf 2b02 a1bf ffae 99be b16a 413f
000000f0: a3a7 01be 777f d43e 0936 153e c148 8a3e
00000100: 22ab c43f 5308 a940 4bc8 37c0 7523 823e
00000110: 6d62 1c3e f911 c33c a5e4 0fbd 34b6 623f
00000120: 1021 84be 3aa5 843f 1261 4dbe 0702 603d
00000130: ca40 68bf c4e7 c6be 740b ee3e e792 fbbd
00000140: 91c9 99be 0c5a 61bf b38e 1ebe e5f5 43bf
00000150: 9470 21c0 030f bd3e 301b 2c3f c9a1 a040
00000160: 3794 473f 85bb b43e 4a47 b23e fda7 8d3e
00000170: 5efd 223f 3a73 6f3f 8261 2c3f 323b 613e
00000180: 863e 67bf 807a 68bf 3af1 153d 71b5 42bf
00000190: 3d40 08bf 31e1 b93e d987 c6bd 5286 9b3e
000001a0: c2f2 df3e b03d 66bf 23cd d7be 60b5 6dbf
000001b0: 09c7 2f3f 472e 273f dc31 493f bed3 263e
000001c0: c9a6 123e 1e1d 213e 17d0 53bf 3183 38bf
000001d0: 3688 e4bf e8f4 633f 69cc eb3f e8cd 76c0
000001e0: 2903 2bbf 7ba6 f8be 3d99 dcbe acff 083e
000001f0: d47a 1d41 022f 3340 3e22 d4bf b86b da3e
00000200: 2836 d73e 62fc 4ebf 4e77 48bf 3e0e 55bf
00000210: 7920 373f 28dc 743f 92fd 3ebf af5f 523f
00000220: 841a 873f e2cc 28c0 132c a83f 88e1 ec3f
00000230: 7671 77bf 5fca 70bf 0e11 58bf caaa 4cbf
00000240: 5d9a 5e40 e1ec a63f ac21 11c0 0098 9240
00000250: ef86 3940 081d b5c0 e72a 0cbf 9f79 c63e
00000260: 9490 99be 3e4b 58bf b2ab 24bf ec78 57bf
00000270: 3747 243f ab6b a1be 8114 c4bc a812 17bf
00000280: 548c 9bbd e119 35bc c10c 633e 55f5 883d
00000290: 053e 10c0 9ab9 5f41 68b2 00c0 6d13 bfbf
000002a0: f5b0 0a3f 165f 593f ea5e 1abf ba66 383f
000002b0: 1705 5240 9067 283c 3c36 5cbe 6bb7 9d40
000002c0: 55b7 353e 6751 673f 417c da3d d61c 973e
000002d0: b7f8 52bf 673d 6a3e 6f45 97bd fc3f 363f
000002e0: e2c2 513f 3aa1 863e 0821 503f 3d8c 623f
000002f0: 49ba 493f d117 0f3f 3bd0 eb3c 8c79 e03e
00000300: ba25 babf 9eb8 f93e d96a 4040 191c 3f3d
00000310: 11ff 53bc e706 5abe 9219 5c3f ca28 0a3f
00000320: 92f3 9640 0e11 df3f 89f3 9abf a527 ae3e
00000330: 72a9 8240 4e38 963f c367 8bbe 04a0 1d40
00000340: 4b70 72bf 3ab0 48bf f8fc 1fbf 98c5 e0be
00000350: 1377 e540 8d11 1c3f 9f93 f0bc 0a75 9840
00000360: 3f51 a840 c86b 9c40 bda3 133f eed6 18be
00000370: 6f5c 04c0 6b3d 3dbf 9960 4440 d305 91c0
00000380: 93f3 5e3f 46d9 f1bc c347 203f ab74 493f
00000390: bb9d 343f f9b6 663f e15c 933e f007 b73e
000003a0: d584 4340 ea86 f5be 84ab f93f 626e 8bc0
000003b0: 23b8 9140 681d 9840 231d d0bf dcda 01c0
000003c0: 98f3 0a3f f065 37bf d399 60bd 8c53 3b3f
000003d0: 2274 103f ce15 4bbf 3bb6 413e 2904 36bf
000003e0: f6d7 6dbf 7957 05bf 4f29 c03e 2d99 bfbf
000003f0: 0823 1f40 fec1 5bbf 8640 0c40 1ab2 1cc0

bias f4 [5]
1.3309299 0.43115234 2.4712741 0.23753843 0.7135112
00000000: e95b aa3f 00c0 dc3e 5b29 1e40 463d 733e
00000010: aca8 363f

weight f4 [5]
-0.21436122 0.14833808 0.9692852 0.0325776 -0.028976195
00000000: 8281 5bbe f0e5 173e 1323 783f 1770 053d
00000010: 7c5f edbc

bias f4 [5]
-0.16860421 -0.3171634 -0.46536177 -0.0045830077 -0.12172389
00000000: 95a6 2cbe 3e63 a2be e643 eebe 0e2d 96bb
00000010: 604a f9bd

running_mean f4 [5]
79.246544 -51.77816 25.97701 63.317505 -36.490623
00000000: 3b7e 9e42 d61c 4fc2 ebd0 cf41 2045 7d42
00000010: 66f6 11c2

running_var f4 [5]
10854.838 19565.45 8172.647 5382.1826 5980.2124
00000000: 5a9b 2946 e6da 9846 2d65 ff45 7631 a845
00000010: b3e1 ba45

weight f4 [5, 5, 6]
-2.1551206 0.2939219 0.3902472 0.41335317 0.74344754 -0.20417723 1.1900054 0.2574742
-0.33492053 -0.59513986 -0.48531193 0.5634296 0.15553895 -0.57159656 0.31362173 -0.7166464
-0.014369896 -0.117381886 0.038689848 0.17758843 0.13743857 0.12706944 -0.11601189 0.24908134
0.16615751 0.018291727 0.45525137 1.0483842 0.102115475 0.18215528 0.36475587 0.37335113
-0.34330705 -0.042421803 -0.6212422 0.46939826 0.6952927 0.37649295 -0.11418813 -0.15855591
-0.017536052 -0.051150072 -0.24666043 0.060415283 0.094792545 -0.12106916 -0.2316579 0.04556769
0.49437064 -0.02990334 -0.074629605 0.7335367 0.278323 -0.4599217 0.52412015 0.47312886
0.2638322 -0.20504545 0.109465174 -0.029068796 -0.57712847 -0.17981851 0.61068386 0.063588336
0.32730696 -0.067969926 0.2756984 0.35052618 -0.051168796 0.01571761 0.17504364 1.0589293
-0.2695491 0.07763245 -0.75844175 0.77324 0.14038014 -0.9508859 0.55402577 0.075211145
0.05370515 0.3746573 -0.2339979 -0.10414387 -0.012198329 0.16439314 0.29472345 0.1385426
0.22907843 -0.31336114 0.34019434 -0.0437025 0.21815442 -0.16326515 1.017933 -0.021510934
-0.17647378 0.46313587 -0.15969393 -0.49606302 -0.5253855 0.64180505 2.5275917 -0.35821825
0.54173934 0.30209306 0.40818223 0.14110558 -0.0050408333 -0.061336696 -0.22288196 -0.5855144
0.7229696 0.51654387 0.09535698 -0.06384714 -0.14039764 0.3459621 -0.46521524 0.67070293
0.06577303 0.37758067 0.18470354 -0.051136512 -0.82580805 0.3679658 0.8715962 0.6837429
0.07203114 1.097103 0.35381126 0.31340736 -2.2938728 1.1295282 -2.4984279 0.016224852
-0.3579895 -2.4574094 0.048232455 -0.56658447 -0.074890405 0.11703371 -0.008898299 0.609828
0.3870832 0.25420102 -0.33925596 -0.16279677 0.21369703 0.20414309
00000000: 7fed 09c0 ee7c 963e 7bce c73e 07a3 d33e
00000010: 9452 3e3f d613 51be 1952 983f a9d3 833e
00000020: b47a abbe 165b 18bf ce7a f8be ec3c 103f
00000030: 9a45 1f3e 2754 12bf 0793 a03e 2376 37bf
00000040: b66f 6bbc ea65 f0bd 3f79 1e3d bed9 353e
00000050: b2bc 0c3e 7e1e 023e a497 edbd 2e0f 7f3e
00000060: 3225 2a3e 88d8 953c b516 e93e 7431 863f
00000070: eb21 d13d ea86 3a3e 48c1 ba3e e127 bf3e
00000080: f1c5 afbe 7cc2 2dbd bb09 1fbf f854 f03e
00000090: b4fe 313f afc3 c03e 77db e9bd 7b5c 22be
000000a0: c4a7 8fbc bd82 51bd 8d94 7cbe 0476 773d
000000b0: 9822 c23d 1cf3 f7bd bb37 6dbe 30a5 3a3d
000000c0: 261e fd3e d9f7 f4bc 68d7 98bd 10c9 3b3f
000000d0: 5a80 8e3e db7a ebbe bd2c 063f f23d f23e
000000e0: 0415 873e 6ff7 51be 472f e03d af21 eebc
000000f0: b1be 13bf 5822 38be c755 1c3f 9a3a 823d
00000100: c794 a73e d133 8bbd 5728 8d3e 2b78 b33e
00000110: 5f96 51bd 38c2 803c a43e 333e ff8a 873f
00000120: 5702 8abe c3fd 9e3d 3d29 42bf 0ef3 453f
00000130: d0bf 0f3e 426d 73bf a2d4 0d3f 4d08 9a3d
00000140: eef9 5b3d 15d3 bf3e 259d 6fbe 6249 d5bd
00000150: 80db 47bc ad56 283e fee5 963e 1dde 0d3e
00000160: 8993 6a3e df70 a0be f42d ae3e 6501 33bd
00000170: df63 5f3e fb2e 27be a14b 823f b337 b0bc
00000180: 8bb5 34be 2520 ed3e ce86 23be f9fb fdbe
00000190: aa7f 06bf 564d 243f 10c4 2140 6268 b7be
000001a0: 6eaf 0a3f f1ab 9a3e 43fd d03e fb7d 103e
000001b0: 932d a5bb 303c 7bbd 2b3b 64be 46e4 15bf
000001c0: 8914 393f 383c 043f 854a c33d 4ac2 82bd
000001d0: 66c4 0fbe f221 b13e b130 eebe 30b3 2b3f
000001e0: 03b4 863d 4152 c13e ed22 3d3e 8574 51bd
000001f0: 2868 53bf 0366 bc3e ee20 5f3f c609 2f3f
00000200: 1085 933d df6d 8c3f c026 b53e ee76 a03e
00000210: d0ce 12c0 6194 903f 3ee6 1fc0 fbe9 843c
00000220: 664a b7be 3246 1dc0 658f 453d ae0b 11bf
00000230: 2460 99bd 5faf ef3d 2cca 11bc b01d 1c3f
00000240: c52f c63e a326 823e f5b2 adbe 32b4 26be
00000250: 65d3 5a3e e30a 513e

bias f4 [5]
-0.20956816 -0.06605721 -0.34599784 -1.1633024 -0.8106294
00000000: 0999 56be 0149 87bd a126 b1be 18e7 94bf
00000010: 6985 4fbf

weight f4 [1, 40]
-0.051061716 0.07761848 0.06278128 -0.21586372 0.20770645 0.16901526 -0.14614058 -0.20481412
0.040747795 -0.10416642 0.09322972 -0.025414765 0.06852674 -0.06896076 0.120765604 -0.06836873
-0.13652165 0.24758565 -0.24846146 -0.19526051 0.34525582 -0.56873673 0.2646432 0.5411772
1.6559596 -0.478519 -0.063853435 -0.2009835 0.15900175 -0.28505707 0.18051471 0.29132944
-1.3048869 -0.6487079 -0.55540854 -0.10770945 -0.15908107 -0.09554572 0.037771888 -0.83730155
00000000: 1726 51bd 70f6 9e3d 7993 803d 610b 5dbe
00000010: 00b1 543e 5612 2d3e e0a5 15be cbba 51be
00000020: 29e7 263d 3455 d5bd 39ef be3d a032 d0bc
00000030: bf57 8c3d 4d3b 8dbd f553 f73d e804 8cbd
00000040: 55cc 0bbe 1887 7d3e ae6c 7ebe 5ff2 47be
00000050: 5fc5 b03e bb98 11bf 507f 873e 978a 0a3f
00000060: 7cf6 d33f 7100 f5be 97c5 82bd 9ece 4dbe
00000070: 5bd1 223e 00f3 91be d9d8 383e 2229 953e
00000080: 8906 a7bf b911 26bf 412f 0ebf c696 dcbd
00000090: 26e6 22be 79ad c3bd b2b6 1a3d 6559 56bf
